my_mnist_model.pt (torch, 439809 bytes, 6 tensors)

0.weight f4 [128, 784]
000000 2f 20 89 bc 98 24 db bc c6 58 98 bc 1b 9b a0 3c
       -0.01673898 -0.026750848 -0.018597018 0.01960521
000010 0d f3 a6 bc 58 37 27 3c fa dd 3b b9 36 c4 f1 3c
       -0.020379568 0.010206066 -0.00017916402 0.029512506
000020 e1 d0 d6 3a 8d 49 00 3b a6 ad aa 3c 00 55 12 3d
       0.0016389155 0.001957509 0.020834755 0.035725594
000030 b5 03 8c bb d9 09 18 3d e1 2f ce 3c 97 27 7e 3c
       -0.004272903 0.037118766 0.025169315 0.015512369
000040 d3 af e1 bc e1 14 78 3c 19 d3 b5 3c 9a 4c 9d 3c
       -0.02754966 0.015141697 0.022195386 0.019201566
000050 f3 e9 89 3c 5e 1c bb 3c d8 2b df 3c e1 6b 13 3b
       0.016835188 0.022840675 0.027242586 0.002249472
000060 37 c3 29 bc 3f 4d f3 3c e5 c4 69 bc 10 43 15 3d
       -0.010361484 0.02969992 -0.014268135 0.03644091
000070 b8 2e d5 3c 08 f6 8a 3c 71 04 75 3c f4 66 9f bb
       0.026023254 0.01696302 0.014954672 -0.004864568
000080 46 2f 0a 3d 90 36 14 3d 24 2f 12 bb b6 b1 40 bc
       0.03373649 0.036184847 -0.002230593 -0.01176112
000090 40 8c af 3a ff 4e 05 3d 05 fa ea bb 98 1a 29 3d
       0.0013393238 0.03254604 -0.007170918 0.041285127
0000a0 f0 bd 7e bc 7c a1 f9 3c fb 7f 77 bc fe 66 a7 bb
       -0.015548214 0.03047251 -0.0151061965 -0.005108713
0000b0 82 a5 c9 3c fe e9 f7 bb 89 3f 88 3b ef b4 d9 bc
       0.024615053 -0.007565736 0.0041579646 -0.026575534
0000c0 12 dd 8e 3c 1f 73 f4 3c b1 d5 26 3d 58 e8 00 3d
       0.017439399 0.02984005 0.040731136 0.03147158
0000d0 54 64 9c 3c 7e e1 7f 3c 06 ca 20 3d 12 40 ec 3c
       0.019090809 0.015617726 0.039255165 0.028839145
0000e0 5e 60 ae bb 5b dc 5c ba c7 d8 a2 bb d9 f9 8a 3c
       -0.0053215465 -0.00084251695 -0.0049696895 0.01696484
0000f0 84 a5 a9 bc 38 f6 d3 bc 49 c1 1f 3c bd f3 34 3d
       -0.020708807 -0.025874242 0.009750673 0.04417776
000100 b3 9b 02 3d c1 4b b4 3c 26 13 f5 3c 5e 21 9c bb
       0.031886768 0.022008779 0.029916357 -0.00476472
000110 85 e1 3d 3c e2 6a 30 3d fc e7 0f 3d 06 c5 f9 3c
       0.011589413 0.04307068 0.035133347 0.030489456
000120 ef 7b 7c bb 3d 7c 23 3d 62 3f 99 bc 1b 7f 6d bb
       -0.0038526019 0.039913405 -0.018706981 -0.003623909
000130 94 e8 ff 3c 74 04 0d 3d 67 c4 20 bc ea 4a c7 3c
       0.031238832 0.034428075 -0.009812451 0.024327714
000140 a7 c4 2a bc 3a b7 a3 3c 7e 65 88 bc ac a7 9d 3c
       -0.010422862 0.01998483 -0.016649958 0.019244991
000150 ae 36 1b bb 0f d5 dd 3c c6 d8 ae bc e4 16 0e 3d
       -0.0023683715 0.027079133 -0.0213436 0.0346898
000160 43 42 1e 3d f6 5a 9c bc 96 0e 39 bc 18 e2 74 bc
       0.03863741 -0.019086342 -0.011294981 -0.014946483
000170 15 60 55 3a b6 5b 85 3d 46 1d 27 3c f3 f5 f2 3b
       0.00081396225 0.06511633 0.01019985 0.0074145733
000180 cd e4 2a 3d fa d0 21 3d cd 2f a6 bc 44 ac 6c bc
       0.041722108 0.039505936 -0.020286465 -0.014445368
000190 7d e4 c8 3c 7b 6d 7c bc 7c 10 9a bc de 21 7d 3a
       0.024523014 -0.015406962 -0.018806688 0.00096562307
0001a0 70 9b 22 3d c3 21 80 3c 9d d8 f3 3c 13 c5 32 3c
       0.039699018 0.015641099 0.029766375 0.010911244
0001b0 c7 9d ae 3c 57 c4 49 bc a9 f1 2d bc 27 9b ff bb
       0.021315468 -0.0123148775 -0.010616698 -0.007800478
0001c0 5a 3b 39 bb 97 7f ac 3b 27 14 a4 bc 7c 1c 8b 3c
       -0.0028264136 0.0052642333 -0.02002914 0.016981356
0001d0 e6 c3 3e bb d4 0b 90 bc 01 8c 03 3c 16 28 27 bc
       -0.0029108464 -0.017583765 0.008028985 -0.010202428
0001e0 31 35 80 3c 2d db 34 3d 86 01 fe 3c 3d 44 1e 3d
       0.015650364 0.044154335 0.031006586 0.038639296
0001f0 e2 f1 18 bc 59 1a 2b bc 89 b0 68 bd 27 83 4b bd
       -0.009335013 -0.0104432935 -0.056808982 -0.049685623
000200 df 02 93 bd 00 89 99 bd 73 86 0f bd 49 53 1f bd
       -0.07178282 -0.07496834 -0.03504033 -0.038897786
000210 40 61 3d bd 1e a4 25 bc 9a ce fa bc 53 5d 51 3c
       -0.046235323 -0.010109929 -0.030616093 0.012778598
000220 94 d8 ad bc ad 84 fb 3c 68 15 26 bb 20 c3 d7 3c
       -0.021221437 0.030702913 -0.002534235 0.02633816
000230 95 21 58 bb 83 30 11 bc f7 8c ec 39 a0 91 c2 bc
       -0.0032979 -0.008861664 0.00045118455 -0.02375108
000240 1b 18 3b 3d 5e c3 4a 3c 3a c9 fd ba 03 89 4e 3d
       0.045677286 0.012375681 -0.0019362338 0.050423633
000250 c1 5a 28 3d 8b d1 31 3d db a7 95 3c 47 4d b5 bb
       0.041102175 0.043412726 0.018268516 -0.005532894
000260 d3 a1 04 3c 9e b1 20 bd 06 ef 9c bd 17 43 94 bd
       0.0080952225 -0.03923189 -0.076627776 -0.07239359
000270 c7 14 48 bd 01 fe d2 bd 0a 0b e2 bc 7a a5 e7 bc
       -0.04884794 -0.10302354 -0.027593154 -0.028277148
000280 c9 a4 1f bd 2d 02 29 bd c0 51 48 3c 71 36 ed 3b
       -0.03897551 -0.04126184 0.012226522 0.007239156
000290 66 81 ca 3c c4 4b b6 bc 51 43 12 3d 67 a5 66 bc
       0.024719905 -0.022252925 0.03570873 -0.014077521
0002a0 40 60 e4 bc a6 b2 02 3d 3e 15 03 bb 9d 9a a7 bc
       -0.027877927 0.031908654 -0.0020001675 -0.020459468
0002b0 0c b2 e5 3b 87 a6 8c bb 77 79 1c 3d 0b 1d 1f 3d
       0.00700975 -0.0042923125 0.038201775 0.038846057
0002c0 f0 d1 1a 3d a6 57 87 3a 26 f3 90 3d a3 ed 5a 3d
       0.03779787 0.0010325804 0.07077627 0.053449284
0002d0 4b 9b ce bc ba 29 1c 3c 4f f6 a3 bd 4e ed 04 bd
       -0.025220534 0.009531433 -0.08005964 -0.032452874
0002e0 79 78 a7 bd 75 1d ac bd be 12 41 bd 0d 04 02 bd
       -0.08177275 -0.08404056 -0.047137015 -0.031742144
0002f0 0a 98 21 bd b4 66 35 bd f1 25 85 bd 0a 4c 85 bc
       -0.039451636 -0.0442874 -0.065013774 -0.01627161
000300 7e eb 02 bd 63 f4 89 bc 43 c2 67 bc cc 49 13 3d
       -0.031962864 -0.016840165 -0.014145437 0.03595905
000310 06 03 06 3d 64 d0 bf bc 7e 27 29 3d c4 e7 23 3d
       0.032717727 -0.023414798 0.04129743 0.04001595
000320 a9 9f 2a bc 58 1f f7 3b 7d 79 99 3b 89 f7 17 3d
       -0.0104140425 0.0075415783 0.004683672 0.037101302
000330 c8 86 26 3d 8c f9 bd 3c 81 f8 85 3d 3c 30 21 3d
       0.04065588 0.023190282 0.06541539 0.03935264
000340 96 4e 8d bc d9 ea fb ba 64 a4 8a bb 5a e8 bf bc
       -0.017249387 -0.001921977 -0.0042310227 -0.023426224
000350 90 e0 94 bd 69 f1 a0 bd fc b3 87 bd e7 74 bd bd
       -0.072693944 -0.07858545 -0.06626126 -0.09250813
000360 63 1c 93 bc 02 d2 31 bd 39 14 a8 bd 63 65 ac bd
       -0.017957872 -0.04341317 -0.08206982 -0.084177755
000370 94 e2 76 bd 71 b2 21 bd 2e 5c 80 3c d8 31 96 bc
       -0.060274675 -0.039476816 0.015668955 -0.018334314
000380 1e d4 f2 3c 2a cf a6 bc f7 a2 1b 3d 42 db 32 3d
       0.029642161 -0.020362455 0.037997212 0.04366613
000390 eb 57 e4 3c 49 67 45 3c 82 4a f4 3c 98 f1 07 3d
       0.027873954 0.012048551 0.029820684 0.033189386
0003a0 08 78 3f 3d 8f 37 c8 3c e0 81 68 3d 53 b7 18 bb
       0.04674533 0.024440555 0.056764483 -0.002330263
0003b0 fe c9 c7 bc a3 b2 22 bd b1 16 6e bc 73 19 15 bd
       -0.02438831 -0.039721143 -0.014531777 -0.036401223
0003c0 48 6d 9b bd 7b b7 aa bd 3b 0c 3b bd 6c a9 10 bd
       -0.07589203 -0.08335777 -0.04566596 -0.035317823
0003d0 c2 3e d2 bc 19 7c af bc d1 04 13 bd 3f d9 4f bd
       -0.02566469 -0.021421479 -0.035893265 -0.05074429
0003e0 90 3a c6 bc 73 01 1d bd 67 d3 4b bc d8 95 06 bc
       -0.024197847 -0.03833146 -0.012440539 -0.0082144365
0003f0 1f c9 29 3d c9 e6 bb 3b cb 7b f1 bb 0b df 12 3d
       0.04145157 0.005734299 -0.0073694936 0.03585724

0.bias f4 [128]
000000 85 61 9e 3c a9 0a a3 bc 5e 47 5e 3b cc fe 0f 3c
       0.01933361 -0.019902544 0.003391705 0.008788776
000010 1a 22 8b bc 85 86 c6 bc d0 77 16 bc 59 00 fb 3a
       -0.016984034 -0.024234066 -0.009183839 0.0019149884
000020 cd 80 ac 3c 42 e6 c3 bc bc e9 eb bc 2f a3 44 3c
       0.02105751 -0.023913506 -0.028797977 0.012001797
000030 da 69 81 bc c2 10 d4 3c d9 c4 ed 3c 26 d7 09 3d
       -0.015797544 0.025886897 0.029024528 0.033652447
000040 2d c9 fd bc 4f 8a d7 bc 08 6b 15 bd e3 f3 0f bd
       -0.030979717 -0.026311068 -0.036479026 -0.035144698
000050 02 11 a5 bc 38 4f 07 3c 0b 09 45 3c 4e 3a 08 bc
       -0.020149712 0.008258633 0.012026082 -0.008314682
000060 25 27 98 3c 73 18 ec 3c ba 7a 9a 3c 86 ee 8e 3c
       0.018573353 0.028820252 0.018857349 0.017447721
000070 b7 dd 8e 3c 54 fd 1b bd a1 32 9f bc d5 8e 17 bd
       0.017439706 -0.03808339 -0.019433321 -0.03700145
000080 89 bf 7e 3c 09 74 9e bc fe 06 f7 3c f8 27 20 3c
       0.015548595 -0.01934244 0.030154701 0.009775154
000090 f0 16 9d 3b 4b 9b a9 3c 76 a8 9d 3c 11 80 18 3c
       0.004793994 0.020703932 0.019245367 0.009307877
0000a0 bc 7e 41 3b f8 92 2c bc 9c d4 83 bc 1f de fd bc
       0.0029525002 -0.010533087 -0.016092591 -0.030989705
0000b0 2e 6f dd 3b 59 d2 90 bb e5 d0 04 3d 52 b9 1d 3d
       0.0067576384 -0.0044196066 0.03242578 0.038506813
0000c0 d6 c4 cb bc f8 ba 78 3b 4d 1e 6b bc 2a a7 67 bc
       -0.024874132 0.003795324 -0.014350486 -0.014138976
0000d0 15 1c a3 ba 3e 1f 1b bc 01 45 12 3b 86 2b b5 bc
       -0.0012444282 -0.009467898 0.0022318962 -0.02211548
0000e0 60 2d f2 3c fd bc bb 3c c2 52 7b 3c a2 a9 a5 3c
       0.029562652 0.022917265 0.015339555 0.020222489
0000f0 c7 13 69 bc fe e3 e7 bc c6 76 b0 bc 62 f9 c9 3c
       -0.014225907 -0.028306957 -0.02154101 0.024655048
000100 74 46 24 bc 7b 9c cf 3c 15 05 66 3c e3 2d 65 bc
       -0.010026563 0.02534317 0.014039298 -0.013987991
000110 7d ae 33 3c 08 ee 38 3c 89 ce 19 3b 30 b5 5b 3c
       0.010966894 0.01128722 0.0023469052 0.013409898
000120 61 b0 cf bc 54 ae e5 bc 84 71 1f 3c 23 17 38 ba
       -0.025352659 -0.028037228 0.009731654 -0.00070224906
000130 67 4e 18 bd cb 13 9d 3c 3c 70 b2 bb 85 78 83 bc
       -0.037184145 0.019174477 -0.0054455083 -0.01604868
000140 8b 9b 04 3d de f6 36 ba 89 cd a0 3c 92 e3 e6 bc
       0.0323749 -0.0006979535 0.019629257 -0.028184686
000150 15 cb a3 3c 2e d3 88 bc 4e dc 90 3c 9f 50 88 bc
       0.019994298 -0.01670226 0.017683174 -0.016640006
000160 f4 80 9c 3c 92 e5 ef 3c 85 70 54 bc 97 d7 1e 3d
       0.019104458 0.029284272 -0.01296628 0.03877982
000170 14 19 a1 3b a7 d0 bb 3c b4 14 09 3d cb e1 ad bc
       0.0049163196 0.022926642 0.03346701 -0.02122583
000180 fe 9f 08 bb d7 20 2c bc 1c 3e 04 3a 13 25 33 bd
       -0.0020847316 -0.0105058765 0.00050446554 -0.04373653
000190 bf 4b be bc 78 2c ed 3c f0 01 a7 3a e0 c7 f2 bc
       -0.023229478 0.028951868 0.0012741666 -0.029636323
0001a0 b5 3d 54 bc d3 22 9a 3c c3 e5 be bc 1f 8d 7d 3c
       -0.012954165 0.018815434 -0.023302918 0.01547554
0001b0 3a 8e d9 bc a1 f9 80 bc 05 e0 e3 3c ef b8 a0 bc
       -0.026557077 -0.015744032 0.027816782 -0.019619433
0001c0 14 3c 07 bd 0f bc e1 bc b8 e8 27 3c eb 24 d5 3c
       -0.03301628 -0.027555494 0.010248356 0.02601858
0001d0 7e c9 b5 3c 96 eb 27 3c 12 1b 42 3c cb 84 d7 3b
       0.022190806 0.010249039 0.011847274 0.0065771095
0001e0 c6 88 db 3c d5 29 42 3c 5b 4d 0a 3d 82 81 f5 3b
       0.026798617 0.011850794 0.03376518 0.007492245
0001f0 6e 79 a2 3c ca 16 46 bb 65 a0 8a bc 67 b3 e6 ba
       0.019833293 -0.0030225986 -0.016922185 -0.0017601073

2.weight f4 [64, 128]
000000 fd 97 37 bd f1 0f 78 3d ab 65 00 be 51 8e 7a bc
       -0.04482268 0.060562078 -0.12538783 -0.01529272
000010 1b 0e 1c 3d d3 10 23 3d 9a b7 93 3d 68 06 d6 3d
       0.03809939 0.039810967 0.072127536 0.10450441
000020 37 ea d1 3b 38 f0 1c 3d e9 ad 11 be b4 37 64 3d
       0.0064060944 0.038315028 -0.14226498 0.055717185
000030 21 2f 84 3d 2e 94 80 3d 71 82 af 3d e8 38 4f bd
       0.064543016 0.06278263 0.085698016 -0.05059138
000040 ab 0d 37 bd 71 03 90 3c 54 ac e3 bc 9f d1 74 3c
       -0.04469077 0.017579766 -0.027792133 0.014942556
000050 61 e9 a4 bd 8f 90 8d bd ba f9 12 be 4a 09 a8 3c
       -0.08052326 -0.06912338 -0.14353076 0.020512242
000060 77 52 0a 3d 60 71 a0 3c ce a7 ad bd ab 3b b8 3d
       0.03377005 0.019585311 -0.08479272 0.08995756
000070 15 75 01 bd 9a 68 bd 3a 63 93 75 3d 32 dc 9d bc
       -0.0316058 0.0014450729 0.059955012 -0.019270036
000080 39 8d da bd 59 fa 83 3d 8a d6 8d 3d 4a 45 9c bd
       -0.10671467 0.064442344 0.06925686 -0.07630403
000090 e1 3b b6 bd 87 89 1a be 4d 37 79 3c a4 34 98 bc
       -0.0889814 -0.15091525 0.015210939 -0.018579789
0000a0 98 94 7a 3d 24 2b ef 3d 25 f1 f3 3d 8b b6 9a 3d
       0.061176866 0.1167815 0.11911229 0.075543486
0000b0 9e 54 c6 bd c1 2a 04 3e d5 59 0c be c6 8f 0f 3e
       -0.09684108 0.12906934 -0.13706143 0.14019689
0000c0 09 33 61 3d 53 a3 49 bc 6e 3f e9 3d 19 6b 9a 3d
       0.05498031 -0.012307006 0.113890514 0.075399585
0000d0 b9 f5 83 bd c6 7d 25 3c 8a 88 1a 3d 61 18 f2 3d
       -0.06443352 0.0101007875 0.03772787 0.11821056
0000e0 0c d7 41 3d af 34 af bc c6 57 34 bd 6b d2 85 bd
       0.047324225 -0.021387426 -0.04402902 -0.06534275
0000f0 24 51 f3 bc 65 18 c6 bd d1 0f 61 3c 4c 0b 84 bb
       -0.029701777 -0.09672622 0.013736681 -0.004029667
000100 ba cc 97 bc a5 ff 97 3d 48 59 8f bc c4 a0 0b 3d
       -0.018530238 0.07421807 -0.017498627 0.034088865
000110 1b b0 1b bd b9 1a 9a bd 3e 44 2b 3d 99 f5 99 bd
       -0.038009744 -0.07524628 0.041813128 -0.07517547
000120 8f 8c 18 3e cc 96 75 bd 4f e4 19 3e 06 62 8e 3d
       0.14897369 -0.059958264 0.15028499 0.0695229
000130 b9 34 b2 bd 16 11 0e be 51 a7 d2 bd 07 bf 0b be
       -0.08701462 -0.13873705 -0.10285819 -0.1364709
000140 ca 1c 88 bd f7 aa 17 3d ce cf 39 3d af ff 8b bd
       -0.06646116 0.03702828 0.045364194 -0.06835877
000150 48 72 91 3c dd c5 f3 3c c7 e1 24 3e bf 25 a1 bd
       0.017754689 0.029757435 0.16101752 -0.078685276
000160 1f 96 c6 bd 34 25 9f bd 56 9b 35 be a9 e1 1d be
       -0.09696602 -0.07770768 -0.17735037 -0.15418114
000170 1e 9a 10 bd 55 2c 77 bc c2 8d 28 be a3 2d 09 3e
       -0.035303228 -0.015086253 -0.16460326 0.13396315
000180 f4 e6 04 3c c3 e5 08 be 28 9f 6b 3d 66 c6 98 bc
       0.008111704 -0.13368897 0.05752483 -0.018649291
000190 f2 0c 9d bd 11 9e 03 bd 8d 8f 7f bd 3c 85 0b bc
       -0.07668485 -0.032133166 -0.06239276 -0.008515652
0001a0 54 57 8b 3d 7c 2e 4b 3c 82 b7 ca 3c 61 a4 52 3d
       0.06803766 0.012401219 0.024745706 0.051426295
0001b0 d8 e0 b8 bd 62 9d db bc 81 56 4b bd da 18 0b bd
       -0.090272605 -0.026808444 -0.049643043 -0.033959247
0001c0 f3 23 25 be 5c bf 0b 3e 35 0a 66 3d 7f 63 96 3d
       -0.16126995 0.13647217 0.056162078 0.07343196
0001d0 99 8f 7f 3d be 09 57 3c 2e 2a fb 3d da 0b 89 ba
       0.062392805 0.013124881 0.122639045 -0.0010455803
0001e0 ce 7d 72 bb c3 a2 98 3d f0 e2 08 3e 86 21 3d 3d
       -0.0037001255 0.07452919 0.1336782 0.04617455
0001f0 da 92 f4 3b 7c 25 1a be 82 33 22 3c e4 82 5b bd
       0.007463795 -0.15053362 0.009899976 -0.053591624
000200 98 34 12 be e5 f6 b7 bd cb ce 6f 3c 7c db 63 bd
       -0.14277875 -0.08982638 0.014636706 -0.05562924
000210 4d 98 cf bb 16 06 7a bc b8 c2 8b 3d 12 c8 c0 bc
       -0.0063352943 -0.01526024 0.06824249 -0.023532901
000220 cf 25 0f bd ca ea 97 bd 71 38 64 bd e8 e1 6f 3d
       -0.034948166 -0.07417829 -0.05571789 0.05856505
000230 45 ee 4a be 96 4a 30 bd 08 ec 44 bd 77 7e f5 3d
       -0.19817455 -0.04303988 -0.04807666 0.11987012
000240 eb 7a 01 be fa ac c3 bc c3 fb e6 3d 94 f1 cf bc
       -0.12644546 -0.023886193 0.112784885 -0.025383748
000250 18 6f 47 bd 25 d8 a1 3d 51 61 0e be bb 05 30 be
       -0.04868993 0.079025544 -0.13904311 -0.17189686
000260 0e 02 fa 3c 35 41 97 bd c8 bf c4 bd 83 65 15 3c
       0.030518558 -0.07385484 -0.09606892 0.009118441
000270 27 bf 24 bd 6e 6d 2f bd c3 f8 1e 3d bd 40 f3 bd
       -0.04022136 -0.04282897 0.038811456 -0.11877582
000280 82 fb fb 3c 33 e6 74 bd 74 5a 70 3b 2e 8c 82 3d
       0.030759577 -0.059789848 0.0036675008 0.063743934
000290 b8 5e 2b 3e 3b 10 78 bb a8 05 cf 3c ff c3 51 3e
       0.16735351 -0.003785147 0.025271252 0.20484923
0002a0 6f fe 97 3d 48 e0 2f bd 88 ae 6e be e4 9b b0 3d
       0.07421576 -0.0429385 -0.23308766 0.08623484
0002b0 a3 ce d0 bd 1a 26 a9 bd 75 e6 be bd 43 3a 87 3d
       -0.10195663 -0.082592204 -0.093213 0.066029094
0002c0 4d fe 28 be e9 dc 8f 3c 0f 21 cf 3c 4c 04 b2 bc
       -0.16503258 0.017561393 0.025284318 -0.021730565
0002d0 81 c1 61 3d 1f d5 0b 3e 15 76 bc bd a7 05 32 bd
       0.05511618 0.13655518 -0.0920221 -0.04346242
0002e0 09 8e 63 bd 72 43 f9 3c 32 a2 06 be 1c b8 42 bc
       -0.055555377 0.030427668 -0.1314781 -0.011884715
0002f0 ce 14 d3 bd de eb ad bc a3 4f df bc e4 be 18 3e
       -0.103067026 -0.021230634 -0.027259653 0.14916569
000300 df 41 48 bd 83 ab bd b9 4b a1 44 bd 26 9c 3f bd
       -0.048890945 -0.00036176675 -0.048005383 -0.046779774
000310 82 41 0a 3d a5 cf 12 3e 51 47 79 bd 72 9d 3f 3c
       0.03375388 0.14337023 -0.06085903 0.011695253
000320 70 3f e0 3b fa 1a 12 3d c1 6e 63 3c ec ba a3 bd
       0.0068435 0.035670258 0.013881386 -0.07994637
000330 c5 8e 88 bd ce a5 44 bd 3c aa 92 3d 79 ff 9b 3e
       -0.06667856 -0.048009686 0.07161376 0.30468348
000340 36 cf 12 be c8 82 04 3e 2a 89 11 3e f8 b2 e6 3c
       -0.14336857 0.12940514 0.1421248 0.02816151
000350 33 4a 92 3d 37 40 87 bb 30 e2 7d 3d c6 11 fb bd
       0.07143059 -0.004127528 0.061983287 -0.122592494
000360 2d 89 ef 3c 1b b5 57 3d 31 4a 31 be c5 3c 36 3e
       0.029240215 0.05266295 -0.17313458 0.17796619
000370 66 c5 da 3d 35 cc 5d 3d 78 fb a3 bc c5 4f 84 bd
       0.10682182 0.054149825 -0.02001737 -0.06460527
000380 3c ab 0a be 87 f0 e3 bc 87 63 bc bd f2 d9 07 bb
       -0.13541883 -0.027824653 -0.09198671 -0.002072927
000390 2b 81 82 bd cb 1d d2 bd f5 7e 11 be 9b 48 6e 3d
       -0.06372293 -0.10259589 -0.14208587 0.05817471
0003a0 21 fe 40 be 0d 41 46 3d c9 0d 08 be 98 59 3a bd
       -0.18846942 0.04840188 -0.13286509 -0.0454956
0003b0 db 03 00 be b2 1b 40 bc f1 04 90 3d 0a c3 fc 3a
       -0.1250147 -0.011725353 0.070321925 0.00192842
0003c0 e6 8b 3d bd 47 9c ec 3d fa 56 0c 3e a4 64 74 3d
       -0.046275996 0.11553245 0.13705054 0.05966629
0003d0 66 04 3e 3d e1 ab 58 3e 16 0e 01 be 86 f1 a8 3d
       0.046390913 0.21159317 -0.1260303 0.08249192
0003e0 85 c8 c9 3c 7b 69 03 3e 53 b1 38 bc 08 b6 8d bb
       0.024631748 0.12833206 -0.011272746 -0.0043246783
0003f0 9a ac 1c 3d 8b ea e2 3c 80 c8 15 be 09 73 f5 bc
       0.038250543 0.02769973 -0.14627266 -0.02996208

2.bias f4 [64]
000000 6f ee 33 3d f7 6f 68 bd 99 5d 23 bc 09 59 0a bd
       0.04392856 -0.056747403 -0.009971046 -0.033776317
000010 2a 3d 12 bd 92 e5 94 bc 09 92 62 3c f4 27 8a bc
       -0.03570286 -0.018175874 0.013828763 -0.016864754
000020 2b 22 c3 3d 51 ee 9c 3d 2f 7f 0e 3d f2 ad d2 3d
       0.095280014 0.07662643 0.03478926 0.10287084
000030 e5 85 e8 bc a4 79 0f 3d 78 0e 36 3d b0 61 59 3d
       -0.028384158 0.035028115 0.044447392 0.053071678
000040 36 a2 75 ba 96 39 80 bd 65 60 9b 3c e7 f1 6e bd
       -0.00093701796 -0.06260984 0.018966863 -0.058336165
000050 7a f5 1a 3d d3 9e 75 bd 0c 7b 4f bc dd b1 15 bd
       0.03783176 -0.05996592 -0.012663614 -0.036546577
000060 14 b7 94 3b 25 a5 a7 bd f7 43 51 3d cd e5 54 3d
       0.004538426 -0.08185796 0.051090207 0.051976968
000070 62 57 5e bd f8 27 1c bd f4 c9 46 bd 59 b7 be 3d
       -0.054282553 -0.038124055 -0.04853244 0.093123145
000080 a6 d7 5f 3b ce de 1c bd 00 44 53 bd 05 0f 97 bd
       0.0034155636 -0.03829842 -0.05157852 -0.073759116
000090 fb be 84 bc 26 a8 89 bd df 41 01 bd c2 26 01 3b
       -0.016204348 -0.06721525 -0.03155696 0.001970694
0000a0 2c bc 07 bd 7a b8 83 3d 78 1f 6c 3d d7 3e 6e 3d
       -0.03313844 0.064316705 0.0576472 0.058165397
0000b0 a8 1e 1f 3d e1 8b 9a 3d 07 b1 a6 bd b8 08 a9 3d
       0.038847595 0.07546211 -0.08139234 0.08253616
0000c0 66 2e 34 bd 67 94 b6 3d 48 09 d6 3d a6 6a 51 3a
       -0.04398956 0.08915024 0.10450989 0.0007988609
0000d0 48 78 90 bd 2a 60 df bb ea 58 89 3d b9 f2 73 3d
       -0.07054192 -0.0068168836 0.06706412 0.05955765
0000e0 d8 10 9a bd 9b c9 ba bc dc f0 cc 3d de 8d 75 bd
       -0.07522744 -0.022801211 0.10006878 -0.05994975
0000f0 fa ca f7 bc bc 90 3d bd 7f b8 88 bd 42 e0 2a 3d
       -0.030248154 -0.046280608 -0.06675815 0.041717775

4.weight f4 [10, 64]
000000 9c d3 c0 bc b1 dd 63 be bb e8 1d be cd 2c 60 3e
       -0.023538403 -0.22252537 -0.15420811 0.2189209
000010 cf 1c 7f be f3 26 19 bc 89 40 91 3e 8f b1 1e be
       -0.24913333 -0.009347665 0.2836955 -0.1549742
000020 d7 05 04 be 23 c6 7e be 70 f2 a6 3d 10 bd 1c 3f
       -0.12892853 -0.2488027 0.0815171 0.61225986
000030 6e af 71 be 0d 6f 0e 3e 8a d9 ed bd ab 2a 27 be
       -0.23602077 0.1390955 -0.11613758 -0.1632487
000040 bc 43 24 3e ac 11 9a bd 19 5e 03 3f 62 28 08 3e
       0.16041464 -0.07522902 0.51315457 0.13296655
000050 e2 a6 eb be 23 e3 17 3e 4f e3 48 bc 78 76 5b be
       -0.4602576 0.1483274 -0.012261226 -0.21431911
000060 ce 6a 54 3e 86 a3 de 3c 30 b2 24 be 17 0f 41 3e
       0.20743868 0.027177583 -0.16083598 0.18853413
000070 1b d7 d6 3c 8a ee a5 bd b3 68 1f bd 6a 91 c5 bc
       0.026225617 -0.08102138 -0.03891821 -0.02411719
000080 77 0c 3e be ca 93 cd 3e 63 ce 90 bc d3 a0 50 3c
       -0.18559442 0.40151817 -0.017676538 0.012733656
000090 04 9e b7 3d 47 37 da bd 7d e4 12 be 8a ae 00 be
       0.08965686 -0.106550746 -0.14344974 -0.12566581
0000a0 bc e4 44 be 18 a5 1b be e9 0a 4e 3e 5a c3 87 be
       -0.1922788 -0.15199697 0.2012135 -0.2651623
0000b0 50 af f3 bc b4 35 a0 be 45 f3 d6 3e 8b e4 0c 3e
       -0.029746681 -0.31290972 0.41982475 0.13759057
0000c0 0e 8c 5d 3c 9f 19 e5 be 58 7c 88 bc e5 9f e5 bd
       0.013522161 -0.4474611 -0.016660854 -0.11212138
0000d0 14 b5 d7 bd 87 44 ee 3c 71 05 b5 be 39 ed 14 be
       -0.10532585 0.02908541 -0.35355714 -0.14543618
0000e0 3a 13 40 be 50 e6 b7 bd a2 0d 63 bc be c1 a8 bd
       -0.18757334 -0.089794755 -0.013858231 -0.082400784
0000f0 c6 2f 91 3d dd ba c7 bd 0a d6 65 be 5d 5a c9 3e
       0.0708919 -0.09752438 -0.2244493 0.39326754
000100 48 0b 7e bd aa 0f aa 3d 69 8f 4c be b8 19 9f 3d
       -0.062022477 0.08303769 -0.19976582 0.07768577
000110 ef 25 04 bf 2f e4 7d 3d df 20 90 be ee 22 a2 3e
       -0.5162038 0.06198519 -0.2815008 0.31667274
000120 a9 42 49 3d df 14 77 3e 5b 90 ce be 9f fa 1a be
       0.049135838 0.24129055 -0.4034451 -0.15134667
000130 62 53 d0 3e ac a5 3e be a5 d2 b0 3d 2d d4 e3 3d
       0.40688616 -0.18617886 0.08633927 0.11124454
000140 12 dc 95 be 61 8c d9 bd bc 18 29 be 96 4e e0 3d
       -0.29269463 -0.10622478 -0.16513342 0.10952489
000150 cc 48 3c 3f a3 47 91 bd 6b 9b be be fa 8c 70 be
       0.7354858 -0.07093742 -0.3722795 -0.23491278
000160 82 ab 4f 3e 7e 1c 87 be c8 78 3c 3e 3f 65 f0 bd
       0.20280269 -0.26388925 0.1840545 -0.11738061
000170 ae 38 e5 bc 77 48 8d be 5b 1d 53 3d 9c 68 21 be
       -0.027981129 -0.2759435 0.051541667 -0.15762562
000180 c0 b8 f3 bd bf 29 ab bd 94 d5 df 3d a4 60 7c 3e
       -0.11900473 -0.08357572 0.10929409 0.2464624
000190 d4 d7 04 bf 71 86 3c bd 6e 0f 53 bd 88 31 bf 3e
       -0.5189183 -0.04602665 -0.051528387 0.37342477
0001a0 09 45 17 be 64 d7 83 be 21 72 df bc 45 80 ee 3d
       -0.14772429 -0.25750268 -0.0272761 0.11645559
0001b0 be 54 9d 3d e3 80 d7 3e 92 18 65 ba 74 48 9f be
       0.07682179 0.4209052 -0.0008739318 -0.31109965
0001c0 2a 4b 04 3e 42 12 5c 3e d6 eb 38 3e d8 6a 45 3e
       0.12919298 0.2149134 0.18058714 0.19279039
0001d0 15 98 6b 3e ce 88 e7 3d 66 68 7f 3e ce 28 f2 3d
       0.23007233 0.1130539 0.24942169 0.11824189
0001e0 57 b2 cc 3b 3c cd 29 3e 9c e5 04 3f f7 cb 88 3d
       0.0062468457 0.16582197 0.51912856 0.06679528
0001f0 28 69 4d 3d c1 ac 86 bd 0d 59 77 be f4 bc dd bd
       0.050149113 -0.06575919 -0.24155064 -0.108270556
000200 bb fa 86 3e 91 3d dd be 63 4e c0 bd 17 cb 60 bd
       0.26363167 -0.43211034 -0.09389951 -0.05488118
000210 c2 a8 68 be 90 20 2b 3e fd 56 82 be 02 68 04 be
       -0.22720626 0.1671164 -0.25456992 -0.12930301
000220 2b c3 82 3e 3d 2a 79 be c0 52 bb bc 29 2d 41 3d
       0.25539526 -0.24332519 -0.022866607 0.04716221
000230 b2 18 80 3e 03 2a 5a 3e 8c 8a e7 3d df 51 03 bd
       0.2501884 0.21305089 0.113057226 -0.0320605
000240 05 dd 87 3e fb 8f ea 3d 3d 1e 78 be f3 03 dd 3e
       0.26535812 0.11453243 -0.24230285 0.43167076
000250 73 b8 8a be f7 2c 89 3e a1 59 36 3c 45 55 43 bd
       -0.2709385 0.26792118 0.011129768 -0.04768874
000260 b9 cc 79 be 9a 66 d9 3e da 9e f4 3e e6 95 80 be
       -0.24394502 0.4246109 0.47777444 -0.25114363
000270 91 17 b8 3d 84 83 e2 be a6 f5 03 bd 6c 25 a4 be
       0.0898887 -0.44240963 -0.03221669 -0.320598
000280 dc a3 76 3a 7c e4 eb 3e 70 d0 ad bc 9f 18 63 be
       0.0009408572 0.46072757 -0.021217555 -0.22177361
000290 b0 ac a7 3e 8a bd 32 3d 4f 95 58 be 37 22 06 bd
       0.32748938 0.04363779 -0.21150707 -0.032747474
0002a0 5f ab e4 3e 7d 21 fb bd 6c 4c 3e 3e ae 7b b4 3e
       0.44661996 -0.12262247 0.1858384 0.3525061
0002b0 33 0c 80 3d b2 2c aa 3e 7d af 8d 3d 49 d6 5e be
       0.06252327 0.33237225 0.06918237 -0.21761431
0002c0 41 25 10 be c4 2b 09 be c9 17 cd be 95 b1 8c 3d
       -0.14076711 -0.13395602 -0.4005721 0.068698086
0002d0 59 04 a5 3d df 70 b1 3e 3c 1d 05 3f f0 e5 df 3c
       0.0805747 0.34656426 0.51997733 0.027331322
0002e0 60 46 9c bd dc cb 26 be c7 b6 1c 3e 93 3a 96 3d
       -0.076306105 -0.16288704 0.15304099 0.07335391
0002f0 ea e0 c6 3d 1a 4e ea bd 07 7a ed 3d 2d 99 c0 bd
       0.09710868 -0.11440678 0.115955405 -0.09404216
000300 ac 8c 1e bd aa ac 4b 3e bf 6a b9 3c 92 ab b9 be
       -0.038708374 0.19890085 0.022633908 -0.3626371
000310 8e 2d ad 3e 36 a1 9a bd e6 bf a4 be 4d 49 87 be
       0.33823818 -0.0755028 -0.32177657 -0.26423112
000320 cb 5c e0 be 88 f4 d6 be f0 06 1e bd 42 7f e8 be
       -0.43820795 -0.41983438 -0.038580835 -0.4540959
000330 08 d6 98 3e 43 4e 32 3e e0 fb 98 bd d2 8f be be
       0.29850793 0.17412667 -0.07469916 -0.372191
000340 a4 5d a7 3e dc af 40 3c 4c 86 8a 3e be 7d eb be
       0.3268863 0.011760678 0.27055585 -0.4599437
000350 09 ad 7a 3e 3f 42 08 be 83 de fe 3e 73 0e 76 be
       0.2448007 -0.13306521 0.49779138 -0.2402895
000360 53 65 db 3d 5a a1 d8 bd c4 5e 87 be 3d 6c 73 3d
       0.107126854 -0.1057765 -0.26439488 0.059429396
000370 bf bb 99 3d 7f a6 04 be 21 6e f2 3d 97 e2 22 3c
       0.07506513 -0.12954138 0.11837412 0.009941719
000380 6f 2e bd 3e 11 2f aa 3d 33 f8 ab 3d 6a 18 88 be
       0.3694949 0.083097585 0.083969496 -0.26581126
000390 ac e4 98 bd ac fb c4 3d 60 b1 b5 3d f5 99 b9 be
       -0.07465491 0.09618315 0.08871722 -0.36250272
0003a0 65 00 e3 3c d9 b7 a9 3e c6 8d 6a be 86 32 f2 3d
       0.027710149 0.33148077 -0.22905645 0.11826043
0003b0 4a ed 9e 3d d1 8a 44 3e 6e 5e a4 3e a3 0b dd 3e
       0.07760103 0.1919358 0.32103294 0.4317294
0003c0 4e 86 3b 3e a5 1f 32 3e 81 1a b4 3c 6e 35 f2 3c
       0.18312952 0.17394884 0.021985294 0.029566493
0003d0 20 c6 99 3e 40 4a 12 3e 44 dc eb 3e 4c 05 62 3e
       0.3003397 0.14286137 0.46066487 0.22072333
0003e0 bb ec 96 bd 15 2f f4 bc 78 61 eb 3c 6f bd 45 3c
       -0.073693715 -0.029807607 0.028733 0.01206909
0003f0 68 6b 9a 3d 62 66 10 bd de 43 95 bd 5b eb 07 3e
       0.07540017 -0.03525389 -0.07288335 0.13273375

4.bias f4 [10]
000000 76 99 1a 3e d8 a7 c5 3d 74 3b f7 bd 3f 24 37 3d
       0.15097603 0.09651154 -0.12071887 0.0447123
000010 fd 9e 09 bc 28 ae 5c 3d 80 7a c2 bb 5e 98 a9 3d
       -0.008399722 0.053877026 -0.0059350133 0.08281015
000020 ba 0e 73 3d f3 2e d4 bd
       0.059340216 -0.10360517
